models/model_stock/pytorch_model.bin (torch, 608368 bytes, 21 tensors)

lstm.weight_ih_l0 f4 [256, 1]
0.14115189 0.13509151 0.012776528 0.10144367 -0.17036627 -0.024453185 -0.2718518 -0.1604247
-0.16979487 -0.10380269 -0.13532819 -0.18500578 -0.31704822 -0.21765338 -0.28105384 -0.25103122
-0.099408515 -0.34662998 -0.13792783 -0.012431268 0.06026693 0.035185087 0.11253942 -0.07820174
-0.1166372 0.069189385 -0.24025302 0.02013023 0.10674054 0.004194603 -0.034951333 0.0056729936
0.1250476 0.027745787 0.057135575 0.08605837 0.04314772 -0.09707738 0.10096127 -0.121303126
-0.014215972 0.09218139 -0.1692191 -0.21698412 -0.19049756 -0.24188735 0.02571909 0.008797093
-0.008019483 -0.07595054 -0.09949947 -0.035973977 0.081352435 -0.040708434 -0.15109092 0.11616328
-0.0720646 0.15327546 0.074793994 -0.048971053 0.07941686 0.13829163 -0.033718977 0.018259203
-0.03459765 -0.093221955 -0.13556549 0.21959502 -0.06510806 -0.13428508 -0.1979212 -0.31532633
-0.096192546 -0.08417108 0.027971836 0.0334772 -0.37879294 -0.20383932 -0.19945131 -0.3949705
-0.23940475 -0.33442947 -0.11007746 0.04116397 -0.15658976 -0.068604045 0.08226927 0.08640147
-0.11394292 -0.116159104 -0.39667714 -0.12847492 0.053517684 -0.19725539 -0.027244264 0.033660125
0.021414421 0.038849037 -0.079956755 -0.026758416 0.0014555904 -0.023635516 -0.13445412 -0.07346971
0.04117708 -0.03913264 -0.2797323 -0.41809642 -0.010280592 -0.17816278 -0.027044302 -0.21374315
-0.056737665 -0.18434654 -0.16657129 -0.087596945 -0.06307717 -0.0049408074 -0.11644712 0.067646876
0.082849205 0.089191556 -0.074956 -0.13228752 0.03618689 0.10945463 -0.09647539 -0.1629313
-0.34613708 -0.2899375 -0.19700307 0.13848972 0.10881633 -0.011304988 -0.14300919 0.15704066
0.17138547 0.013458212 0.20064016 0.13679355 -0.16862816 0.1968037 -0.24128406 -0.18595049
0.23629458 -0.1784002 0.07854754 -0.114935175 0.27148145 0.14335859 -0.18912375 -0.006674754
-0.038504433 0.15055978 -0.14253765 -0.046605017 0.30206415 0.041279856 0.13793756 -0.068087354
0.23932758 0.081406474 -0.017644104 -0.25501955 0.15115334 0.26307276 0.060319073 0.11013172
0.0541238 0.2172137 0.2630976 0.18654554 -0.1152092 -0.16833642 -0.050072268 -0.2515059
-0.12838578 0.1934342 0.22156344 -0.014731881 -0.35147634 -0.042324167 -0.21764518 0.31615585
-0.08688904 -0.29688886 0.19316068 -0.1927635 0.12630242 -0.23064464 -0.028476024 -0.046893343
0.14067528 0.21008372 0.1238614 0.2815473 0.0017017644 -0.054529883 -0.15787646 -0.20929204
-0.13507359 -0.03189695 -0.053919606 -0.005960978 -0.34009555 -0.10719829 -0.19143988 -0.33714533
-0.09313097 -0.19856457 -0.06267526 -0.2106895 -0.023237996 0.023434227 0.16272557 -0.06736076
-0.052192748 0.1773746 -0.23090205 0.027641939 0.3164761 -0.023242094 0.020459162 -0.07001959
0.2107047 -0.05226158 -0.11474055 0.011109089 -0.10484599 -0.124657236 0.13154562 -0.006130176
0.015373723 -0.09521886 -0.13390559 -0.27806827 -0.021582643 -0.28107446 -0.04795942 -0.07235308
0.04119773 -0.13442858 -0.20466515 0.056468498 -0.041428223 -0.08972406 -0.17963241 0.13368767
0.061938148 0.3432062 0.05017076 0.09977332 -0.0011106189 -0.044785794 -0.07400225 0.051239442
00000000: 1f8a 103e 6e55 0a3e a454 513c b3c1 cf3d
00000010: 7f74 2ebe 0c52 c8bc 2930 8bbe 5f46 24be
00000020: b5de 2dbe 8196 d4bd 7993 0abe 2872 3dbe
00000030: 2554 a2be 87e0 5ebe 4ae6 8fbe 2a87 80be
00000040: b196 cbbd 7c79 b1be f43c 0dbe 84ac 4bbc
00000050: 75da 763d 3d1e 103d 117b e63d 3c28 a0bd
00000060: 7cdf eebd 2ab3 8d3d e304 76be 27e8 a43c
00000070: c99a da3d e172 893b 2129 0fbd 85e4 b93b
00000080: 7a0c 003e 224b e33c fe06 6a3d 5f3f b03d
00000090: aabb 303d 81d0 c6bd c8c4 ce3d c66d f8bd
000000a0: 1cea 68bc 99c9 bc3d c647 2dbe 1631 5ebe
000000b0: cb11 43be 51b1 77be d7b0 d23c af21 103c
000000c0: 2664 03bc f58b 9bbd 61c6 cbbd 7359 13bd
000000d0: 1b9c a63d e3bd 26bd 94b7 1abe 04e7 ed3d
000000e0: 9b96 93bd 3ef4 1c3e 982d 993d df95 48bd
000000f0: 4fa5 a23d 529c 0d3e e91c 0abd 5394 953c
00000100: 44b6 0dbd 27eb bebd aed1 0abe 84dd 603e
00000110: 6057 85bd 0782 09be dbab 4abe 7472 a1be
00000120: 9900 c5bd e361 acbd 3125 e53c 631f 093d
00000130: 26f1 c1be 41bb 50be f73c 4cbe 9339 cabe
00000140: 8526 75be 573a abbe 4b70 e1bd 8d9b 283d
00000150: 1159 20be 4780 8cbd cb7c a83d 41f3 b03d
00000160: e85a e9bd d3e4 edbd 4419 cbbe ee8e 03be
00000170: 5c35 5b3d 51fd 49be 5d2f dfbc 33df 093d
00000180: 4c6d af3c 2b20 1f3d 5ec0 a3bd 7734 dbbc
00000190: 82c9 be3a 459f c1bc 57ae 09be 4a77 96bd
000001a0: 4ca9 283d 8c49 20bd 1239 8fbe bc10 d6be
000001b0: ee6f 28bc 4e70 36be 038c ddbc 7cdf 5abe
000001c0: c165 68bd 57c5 3cbe aa91 2abe 0766 b3bd
000001d0: 9a2e 81bd 7fe6 a1bb d47b eebd 728a 8a3d
000001e0: d8ac a93d 10aa b63d 8882 99bd 6176 07be
000001f0: b438 143d c029 e03d e494 c5bd 76d7 26be
00000200: e138 b1be b072 94be 2cbb 49be 40d0 0d3e
00000210: 19db de3d 8e38 39bc 0071 12be 44cf 203e
00000220: ac7f 2f3e d57f 5c3c 9d74 4d3e 9c13 0c3e
00000230: dcac 2cbe e986 493e 2b13 77be ce69 3ebe
00000240: 35f7 713e 8bae 36be 88dd a03d 2263 ebbd
00000250: 9eff 8a3e 98cc 123e a8a9 41be e5b7 dabb
00000260: d3b6 1dbd 582c 1a3e 64f5 11be e7e4 3ebd
00000270: 27a8 9a3e 1115 293d 813f 0d3e 6271 8bbd
00000280: 4a12 753e 70b8 a63d 5e8a 90bc ec91 82be
00000290: f1c7 1a3e 79b1 863e 2211 773d bd8c e13d
000002a0: ebb0 5d3d 456d 5e3e bbb4 863e cb05 3f3e
000002b0: cdf2 ebbd 6260 2cbe 9418 4dbd 62c5 80be
000002c0: 9077 03be 9d13 463e 87e1 623e fd5d 71bc
000002d0: b5f4 b3be 1b5c 2dbd 61de 5ebe 2edf a13e
000002e0: e2f2 b1bd d101 98be eacb 453e cc63 45be
000002f0: 6c55 013e 1c2e 6cbe 8d46 e9bc 3c13 40bd
00000300: 2e0d 103e 3020 573e 0cab fd3d f826 903e
00000310: bd0d df3a ba5a 5fbd 5eaa 21be a750 56be
00000320: bb50 0abe 60a6 02bd ceda 5cbd 4f54 c3bb
00000330: 0121 aebe c78a dbbd d108 44be 509e acbe
00000340: 73bb bebd 8354 4bbe e35b 80bd fdbe 57be
00000350: 9c5d bebc 23f9 bf3c 88a1 263e 70f4 89bd
00000360: 10c8 55bd b0a1 353e 9671 6cbe 5971 e23c
00000370: 2809 a23e 3466 bebc f999 a73c 6e66 8fbd
00000380: f9c2 573e 3d10 56bd 18fd eabd e502 363c
00000390: 7fb9 d6bd 4b4c ffbd e5b3 063e a5df c8bb
000003a0: 11e2 7b3c 1b02 c3bd 8c1e 09be f75e 8ebe
000003b0: 15ce b0bc fee8 8fbe 1971 44bd da2d 94bd
000003c0: f3be 283d a5a7 09be be93 51be 834b 673d
000003d0: a4b0 29bd 3fc1 b7bd 8ff1 37be 6ce5 083e
000003e0: dbb2 7d3d b9b8 af3e db7f 4d3d f455 cc3d
000003f0: 3092 91ba 4f71 37bd 7e8e 97bd 73e0 513d

lstm.weight_hh_l0 f4 [256, 64]
-0.13562484 -0.101354256 0.008863131 0.2723279 -0.11588998 -0.036241952 0.0507991 -0.1871237
-0.14252895 -0.09325198 -0.09102892 0.1931256 0.020894898 -0.028079486 0.014375452 0.17908967
-0.030946244 0.1528633 -0.17451009 0.1469227 -0.2094352 0.15207644 -0.14741544 0.14204425
0.0996017 -0.24363424 0.09537144 -0.09085637 0.03518549 -0.12790194 0.1430206 0.048692036
0.07742147 0.16362338 -0.08484835 -0.0812238 0.01410219 0.19928706 0.17681564 -0.17270444
-0.07484272 -0.14259556 0.09480599 -0.24821447 -0.10682493 0.105171114 0.039782535 -0.023110436
-0.06321892 -0.26070845 -0.11342036 0.19999503 -0.22185941 -0.19346522 -0.07013128 0.13262023
0.011406894 -0.21994878 0.18807893 -0.20496842 0.20105878 -0.19588616 0.015171465 0.13606368
-0.059104487 -0.20053726 0.01793984 0.22830968 -0.040585015 -0.10670513 0.07982415 -0.02362849
-0.18377581 -0.0043048086 -0.017627463 0.20775454 0.16034892 -0.022429429 0.06588882 0.029472731
-0.08879218 0.15153608 -0.10167971 0.07498933 -0.11463301 0.31165418 -0.11702603 0.1916916
0.06595999 -0.12264167 0.22357105 -0.012443475 0.2826365 -0.038415022 0.11503016 0.08113264
0.087240785 0.13136837 0.056075443 -0.11140844 0.07077342 0.021709898 0.23654583 -0.12732922
-0.03868991 -0.20524624 0.06683219 -0.011914491 -0.076230235 0.14809537 0.07940814 -0.051887676
0.030721597 -0.19453864 -0.21335056 -0.043428075 -0.15994199 -0.15695775 -0.23941611 0.13364041
-0.036980554 -0.14292283 0.24938086 -0.17093012 0.07373122 -0.25406238 -0.17101872 0.13582335
-0.09310926 -0.052769024 -0.089105055 -0.08381074 0.014424051 0.029083464 0.008038893 -0.023590298
0.050849132 -0.046246715 0.1185467 0.020754876 0.14200711 0.1250924 -0.0816431 0.05665886
-0.031984285 0.012260701 0.16392794 0.058144197 0.09558461 -0.031362493 -0.16203736 -0.04788843
0.12462349 -0.027646635 0.117166854 -0.089633405 -0.075767405 0.021917317 -0.050072674 0.10742448
-0.023777552 0.05570967 0.044495557 0.21749467 -0.035734456 -0.08686473 0.0024542403 0.11692106
0.14003032 0.05181872 0.08242849 0.029650291 0.00846689 0.001915187 0.0827039 -0.12823643
0.084846206 0.070249505 0.005966939 0.14493196 0.05973908 -0.1472881 -0.03730776 -0.080010794
0.053405117 0.06627353 0.048905574 -0.02700569 -0.055060484 -0.10075574 0.05691201 0.077542596
-0.21396752 -0.24432667 -0.054645866 0.030996596 0.17933448 0.01132594 -0.1304662 0.12815629
0.10253177 0.045036115 0.033386827 0.24420832 -0.07110873 0.3008755 -0.16376516 -0.13956855
0.32567382 -0.2199873 0.15514064 -0.0927306 0.15694468 0.07450894 -0.1609745 0.037883118
-0.07240998 0.03168616 -0.119932905 0.089176804 0.25424665 0.0010783068 0.04320377 0.04241114
0.09044047 0.14952967 -0.08559742 -0.14371167 0.1327848 0.19774859 0.15622444 0.14499079
0.057620328 0.16110513 0.31120962 0.057999887 -0.16488907 -0.16992855 -0.077207565 -0.36734435
-0.04084476 0.29880825 0.20298803 -0.013946167 -0.24676731 -0.12009436 -0.31920135 0.3178353
-0.024320291 -0.01762903 0.11703229 -0.0799215 0.16140252 -0.24925713 0.039823998 0.14468333
00000000: 3de1 0abe d292 cfbd aa36 113c 906e 8b3e
00000010: ba57 edbd 7172 14bd b812 503d 5b9d 3fbe
00000020: 1cf3 11be e5fa bebd 5f6d babd b8c2 453e
00000030: c72b ab3c f306 e6bc 0487 6b3c 4863 373e
00000040: fa82 fdbc 3288 1c3e c6b2 32be e772 163e
00000050: 2e76 56be edb9 1b3e 13f4 16be 0c74 113e
00000060: fafb cb3d 417b 79be 1a52 c33d e812 babd
00000070: a91e 103d baf8 02be fe73 123e 4d71 473d
00000080: 268f 9e3d e38c 273e f9c4 adbd aa58 a6bd
00000090: df0c 673c e811 4c3e 290f 353e 6fd9 30be
000000a0: 2447 99bd 9204 12be a529 c23d ef2b 7ebe
000000b0: 07c7 dabd f463 d73d 03f3 223d 1952 bdbc
000000c0: ec78 81bd 947b 85be ef48 e8bd 7fcb 4c3e
000000d0: 1d2f 63be bf1b 46be fda0 8fbd 99cd 073e
000000e0: fbe3 3a3c 413a 61be c397 403e 3ee3 51be
000000f0: 5ae2 4d3e 6296 48be bd91 783c 4754 0b3e
00000100: 8c17 72bd a459 4dbe 92f6 923c 03ca 693e
00000110: 793c 26bd 3888 dabd d87a a33d 8990 c1bc
00000120: ba2f 3cbe 5a0f 8dbb 7867 90bc 9bbd 543e
00000130: 8232 243e ecbd b7bc b8f0 863d cc70 f13c
00000140: add8 b5bd 462c 1b3e 743d d0bd 0194 993d
00000150: b6c4 eabd 2391 9f3e 58ab efbd ce4a 443e
00000160: 0816 873d 8e2b fbbd cfef 643e b8df 4bbc
00000170: bbb5 903e 1259 1dbd ef94 eb3d df28 a63d
00000180: 4cab b23d 6e85 063e 5daf 653d 1c2a e4bd
00000190: a8f1 903d f5d8 b13c 1239 723e 9762 02be
000001a0: 5079 1ebd 122c 52be 51df 883d ff34 43bc
000001b0: 991e 9cbd 50a6 173e bca0 a23d 2c88 54bd
000001c0: dcab fb3c 2335 47be 9278 5abe a3e1 31bd
000001d0: d5c7 23be 88b9 20be 7f29 75be 08d9 083e
000001e0: ec78 17bd 5d5a 12be b25d 7f3e 4e08 2fbe
000001f0: 6500 973d 7714 82be 881f 2fbe 4715 0b3e
00000200: 11b0 bebd 5524 58bd b67c b6bd f7a4 abbd
00000210: db52 6c3c 7240 ee3c 90b5 033c 7140 c1bc
00000220: 2e47 503d 326d 3dbd 9dc8 f23d 2106 aa3c
00000230: 506a 113e 3918 003e 7f34 a7bd 1f13 683d
00000240: f401 03bd 1be1 483c badc 273e 9c28 6e3d
00000250: ddc1 c33d f575 00bd 1fed 25be a926 44bd
00000260: 9a3a ff3d 327b e2bc 2df5 ef3d b891 b7bd
00000270: f12b 9bbd f28b b33c 0119 4dbd 5e01 dc3d
00000280: 24c9 c2bc d32f 643d f940 363d ecb6 5e3e
00000290: 4b5e 12bd 23e6 b1bd 52d7 203b 4f74 ef3d
000002a0: 1c64 0f3e de3f 543d 45d0 a83d 2be5 f23c
000002b0: b6b8 0a3c 0307 fb3a aa60 a93d 6950 03be
000002c0: d9c3 ad3d f9de 8f3d 5086 c33b 0b69 143e
000002d0: f7b0 743d b1d2 16be 06d0 18bd b3dc a3bd
000002e0: 53bf 5a3d 6bba 873d 3651 483d 093b ddbc
000002f0: 1a87 61bd 0759 cebd 911c 693d a7ce 9e3d
00000300: 4d1a 5bbe c530 7abe 58d4 5fbd 93ec fd3c
00000310: 75a3 373e 6f90 393c ee98 05be 673b 033e
00000320: 2dfc d13d ca77 383d a0c0 083d bf11 7a3e
00000330: 74a1 91bd 5b0c 9a3e 0eb2 27be 0feb 0ebe
00000340: b8be a63e 5a44 61be 30dd 1e3e 8ae9 bdbd
00000350: 1bb6 203e 2598 983d 80d6 24be 542b 1b3d
00000360: af4b 94bd 59c9 013d 629f f5bd 54a2 b63d
00000370: 9e2c 823e f955 8d3a 70f6 303d 4eb7 2d3d
00000380: da38 b93d 4e1e 193e b34d afbd 2729 13be
00000390: bdf8 073e 9b7e 4a3e 4df9 1f3e 7778 143e
000003a0: 4b03 6c3d bef8 243e de56 9f3e 4a91 6d3d
000003b0: aed8 28be c001 2ebe 001f 9ebd 8f14 bcbe
000003c0: d64c 27bd 65fd 983e 18dc 4f3e 777e 64bc
000003d0: 92b0 7cbe 08f4 f5bd 5c6e a3be 4fbb a23e
000003e0: 593b c7bc c16a 90bc a0ae ef3d e2ad a3bd
000003f0: b446 253e 433d 7fbe 7d1e 233d de27 143e

lstm.bias_ih_l0 f4 [256]
0.015311287 -0.013705335 0.10263746 -0.013316453 0.026541522 0.040666267 0.015949894 -0.15915032
-0.06365875 -0.022814095 -0.006353839 -0.084428966 0.07395083 -0.035105217 -0.04596961 0.08390315
-0.10109373 0.018156622 -0.05689877 -0.07733295 0.07789961 -0.11235608 -0.17853044 -0.119588844
-0.19289027 -0.06724652 -0.11758552 -0.08849322 0.045487136 0.011858324 -0.050612003 -0.116283394
-0.17376761 -0.06789862 -0.17973278 0.10441606 -0.11735272 0.046026453 -0.12437762 0.04734603
-0.09084126 0.00074207614 -0.049509324 -0.033309717 0.046190567 -0.17958388 -0.10894541 0.09141079
0.0077519687 0.014982847 -0.16855764 -0.16123058 -0.08767178 0.04546198 0.022609899 0.14297459
-0.020344358 0.054834757 -0.052362613 0.0019997035 0.04723556 -0.16573992 -0.065592766 0.04751152
-0.014109539 -0.04056706 -0.079626076 -0.16917709 0.045308404 -0.08319028 0.047473025 0.020115633
-0.061221197 -0.050132606 -0.031305704 -0.19228145 0.058603596 -0.15950857 -0.032324072 0.119813785
-0.11143999 -0.15016332 0.077650726 -0.00069575774 -0.030904254 -0.14915252 -0.14678007 -0.031472407
-0.14454137 -0.2007255 -0.03718154 -0.009903155 -0.05778527 -0.06414403 0.03997648 -0.1889429
-0.090593696 -0.07730818 -0.16868348 -0.011241276 0.055545934 0.058289845 -0.10433876 -0.15208842
0.019882198 0.03395416 0.05531222 0.039545313 -0.02364732 0.047783192 -0.1275435 -0.12572466
0.07661751 0.007546231 -0.21907909 -0.15290253 -0.0002825421 0.03710841 -0.2088752 -0.12018251
-0.19190542 -0.06651563 -0.15598275 -0.14458178 0.016026277 0.043999728 0.07035604 -0.004459134
0.0091046 -0.017872214 0.09569396 -0.0306955 0.06772319 -0.03172267 -0.049615685 -0.040012237
0.0467651 -0.08075382 -0.011019287 0.048803464 0.15100563 -0.029144943 0.06403444 0.14321853
0.0014486285 -0.034952838 -0.0043869503 0.13887066 -0.04653185 0.0074386825 -0.017326895 0.044264726
-0.0071807047 -0.04365781 0.035375178 -0.019374242 -0.010985921 0.085393466 -0.0584251 0.0063094967
0.031360403 0.012079741 0.0009504493 -0.034283485 -0.11298162 -0.07658968 -0.09140933 0.06911401
0.03759368 -0.029133983 -0.00691506 -0.11926129 0.06019907 0.07501442 0.0072733364 0.037796397
0.008710336 0.019872684 -0.13351248 0.122138366 0.024042845 -0.10313768 0.028045228 -0.091969594
0.016034698 -0.06908152 -0.068409525 -0.075261705 -0.05980401 0.06609343 0.10980656 -0.059064884
0.17369092 0.061265316 -0.009430362 -0.20091438 -0.07580028 0.006684044 -0.17383876 -0.13396351
0.006742253 -0.07262287 -0.020758316 -0.08408089 0.11452849 0.03554055 -0.027462045 0.17330147
-0.1350337 -0.19697934 -0.028970614 -0.08425898 -0.038959567 -0.10881475 -0.10610383 0.0832693
-0.009776796 -0.039023317 -0.19801292 -0.11350058 -0.07737995 -0.07473188 -0.07931823 -0.059532974
0.04284029 -0.043071453 0.029998364 -0.033041153 0.053176157 0.0039828946 -0.022724846 -0.06915105
0.056713816 0.041027825 -0.03315468 -0.02182694 -0.09342913 -0.16886082 -0.0138054425 0.073268175
-0.12499283 -0.075461216 0.009939811 -0.09241046 -0.093456045 -0.07674422 -0.18758914 -0.098315105
-0.020467486 0.011624362 -0.10686203 0.019528555 -0.1643197 -0.02923258 0.0021081513 0.060030647
00000000: 31dc 7a3c 578c 60bc 9733 d23d 412d 5abc
00000010: 9b6d d93c ac91 263d 5aa9 823c 4df8 22be
00000020: 855f 82bd a0e4 babc dd33 d0bb 18e9 acbd
00000030: 8873 973d 7dca 0fbd a14a 3cbd 6ad5 ab3d
00000040: 3b0a cfbd 32bd 943c af0e 69bd bd60 9ebd
00000050: d589 9f3d f21a e6bd afd0 36be ffea f4bd
00000060: 0785 45be 8bb8 89bd add0 f0bd ef3b b5bd
00000070: b850 3a3d 6a49 423c 884e 4fbd fd25 eebd
00000080: 23f0 31be 6f0e 8bbd df0b 38be 16d8 d53d
00000090: 9f56 f0bd 3c86 3c3d b2b9 febd e9ed 413d
000000a0: fc0a babd e387 423a 4aca 4abd c56f 08bd
000000b0: 5232 3d3d d6e4 37be c51e dfbd 9535 bb3d
000000c0: 3a04 fe3b 9d7a 753c 609a 2cbe a119 25be
000000d0: 438d b3bd 5736 3a3d 6538 b93c ee67 123e
000000e0: 36a9 a6bc 699a 603d 2e7a 56bd 750d 033b
000000f0: 137a 413d bab7 29be 8055 86bd 719b 423d
00000100: b22b 67bc a529 26bd ff12 a3bd c23c 2dbe
00000110: 4e95 393d aa5f aabd 1373 423d 8ac9 a43c
00000120: 14c3 7abd d957 4dbd 693a 00bd 6ee5 44be
00000130: 530a 703d 3756 23be 3f66 04bd ee60 f53d
00000140: a63a e4bd 6ac4 19be 5807 9f3d 8363 36ba
00000150: eb2a fdbc 70bb 18be 844d 16be 36e9 00bd
00000160: a702 14be fc8a 4dbe ac4b 18bd d840 22bc
00000170: 3fb0 6cbd f25d 83bd 61be 233d 3f7a 41be
00000180: 3089 b9bd c053 9ebd 5dbb 2cbe 542d 38bc
00000190: 2284 633d 55c1 6e3d 8faf d5bd 11bd 1bbe
000001a0: fedf a23c 8413 0b3d 118f 623d 44fa 213d
000001b0: 06b8 c1bc 4fb8 433d c39a 02be f7bd 00be
000001c0: a4e9 9c3d 6046 f73b 4556 60be 7b92 1cbe
000001d0: 2922 94b9 fdfe 173d 61e3 55be 3f22 f6bd
000001e0: db82 44be 5939 88bd f1b9 1fbe 3f0d 14be
000001f0: 8a49 833c 0f39 343d d416 903d ed1d 92bb
00000200: 762b 153c c068 92bc 32fb c33d 2175 fbbc
00000210: 75b2 8a3d a1ef 01bd d139 4bbd dfe3 23bd
00000220: c38c 3f3d 4262 a5bd 3d8a 34bc 24e6 473d
00000230: 38a1 1a3e 60c1 eebc 7d24 833d e1a7 123e
00000240: e8df bd3a b52a 0fbd 68c0 8fbb 1c34 0e3e
00000250: 2e98 3ebd 31c0 f33b 22f1 8dbc ee4e 353d
00000260: 1e4c ebbb 88d2 32bd 90e5 103d bbb6 9ebc
00000270: 4bfe 33bc c5e2 ae3d 284f 6fbd e5bf ce3b
00000280: c473 003d 1bea 453c 9327 793a d76c 0cbd
00000290: e862 e7bd 0ddb 9cbd d134 bbbd a58b 8d3d
000002a0: d5fb 193d 64aa eebc ba97 e2bb 433f f4bd
000002b0: 4d93 763d 29a1 993d 2b55 ee3b 65d0 1a3d
000002c0: ccb5 0e3c 0acc a23c 7fb7 08be ae23 fa3d
000002d0: 80f5 c43c d939 d3bd 1bbf e53c 8e5a bcbd
000002e0: 335b 833c 9d7a 8dbd 4b1a 8cbd cf22 9abd
000002f0: 0df5 74bd fe5b 873d 43e2 e03d 05ee 71bd
00000300: 08dc 313e 57f1 7a3d ce81 1abc 80bc 4dbe
00000310: 2d3d 9bbd d305 db3b ca02 32be bb2d 09be
00000320: 1eee dc3b 4dbb 94bd 580d aabc 9a32 acbd
00000330: ea8d ea3d f892 113d 15f8 e0bc f175 313e
00000340: 4646 0abe f4b4 49be c853 edbc f98f acbd
00000350: 1194 1fbd 45da debd f74c d9bd 1889 aa3d
00000360: db2e 20bc ead6 1fbd e6c3 4abe fe72 e8bd
00000370: 6179 9ebd 070d 99bd 9971 a2bd d9d8 73bd
00000380: 4d79 2f3d b16b 30bd 21bf f53c 2956 07bd
00000390: 3ecf 593d f182 823b 7529 babc 119f 8dbd
000003a0: bf4c 683d cb0c 283d 34cd 07bd 69ce b2bc
000003b0: c657 bfbd dae9 2cbe 3930 62bc a00d 963d
000003c0: 3efc ffbd 698b 9abd 97da 223c b241 bdbd
000003d0: e265 bfbd 132c 9dbd 5e17 40be 6e59 c9bd
000003e0: 6eab a7bc 1c74 3e3c 7bda dabd 59fa 9f3c
000003f0: 6c43 28be 2a79 efbc e928 0a3b b2e2 753d

lstm.bias_hh_l0 f4 [256]
0.066298805 0.029329827 -0.004581586 -0.05700469 -0.17534585 -0.07237314 -0.03666018 -0.23453872
0.04924575 -0.17798635 0.07840207 -0.06482711 -0.0037692192 0.008509374 0.002995788 0.11617097
-0.14029622 -0.17308852 0.0073273713 -0.03388577 -0.14631426 -0.015572539 0.0068292324 0.07394049
0.03139931 -0.08215598 -0.043003228 -0.013952276 -0.13751741 0.022198413 0.048247278 -0.0934018
-0.10410295 0.007810793 -0.031145763 -0.08615876 0.04432399 -0.02376296 -0.16173185 0.03271695
-0.14007372 0.09083454 -0.056991234 0.10287092 -0.13531545 -0.09544111 0.017532934 0.013868045
0.018176844 0.0073725833 0.03192073 -0.16543679 0.007403109 -0.05406449 -0.044458147 0.1034502
-0.012504423 0.005759437 -0.014824999 -0.035640266 -0.07529638 -0.17202455 0.049531583 -0.0046613016
0.030627107 -0.13351622 -0.042925447 -0.07470374 -0.058365483 -0.10858106 -0.07002245 -0.1234378
-0.03699062 -0.06856577 -0.012910949 -0.18785083 0.074080855 -0.058026016 -0.08362921 -0.039782513
-0.1529509 -0.044672284 0.102423206 -0.092788026 0.02131657 -0.087614685 -0.14021449 -0.11339818
-0.09441305 -0.12084951 -0.026338791 -0.13485715 -0.16235496 -0.057316914 -0.01885093 -0.21190166
-0.106202066 -0.0012057635 -0.03273327 -0.13084652 -0.029691853 0.17120503 -0.13075551 -0.1260107
-0.101370886 -0.079099655 -0.035794247 0.0428754 -0.06244065 0.018267801 -0.028293282 -0.0951784
0.029214682 0.1289435 -0.0033592733 -0.08315945 -0.053231556 -0.09432523 -0.0034901695 -0.0065202983
-0.15019062 -0.09321155 0.015956614 0.00066169753 7.732044e-05 -0.07047167 -0.11544382 -0.07691763
0.108545035 0.08255319 -0.037897967 0.06403423 -0.12816347 -0.0037931637 0.14348696 -0.05993254
-0.085536554 0.05103754 -0.058207307 -0.15331402 -0.020420931 -0.034340944 0.023641435 -0.009498884
-0.038133923 0.035054933 -0.038283594 -0.0643664 -0.041858718 -0.019828552 0.034233745 -0.019036986
0.04094993 -0.03943584 0.049695604 0.009592792 -0.021924358 -0.14001441 -0.015415369 0.030371152
-0.075559765 0.018507646 0.019027866 0.101330236 0.04976142 -0.0046851863 0.117973104 -0.07866419
-0.048708767 -0.03883419 -0.07928188 -0.002682589 -0.031836715 0.07356257 0.019960789 0.038251538
0.0333893 -0.1633592 0.031406704 -0.0929887 0.06942145 0.061978333 0.03774014 0.0021042714
0.0014241639 0.09348007 0.036458563 0.09760345 -0.017175853 -0.016041236 -0.06727748 0.08315326
0.11998167 -0.0104438 -0.09531761 -0.16312048 0.05428411 -0.085767545 -0.09454082 -0.14248691
-0.055772807 -0.060532603 -0.08010863 -0.11625011 0.10190341 -0.08245356 0.01038277 0.1498467
-0.005372047 -0.013400338 -0.052443136 -0.14034474 0.00668246 -0.09557106 -0.15790018 -0.15444581
-0.06295631 -0.13669065 -0.16744135 -0.14909224 -0.0719673 -0.052460287 0.0090405885 -0.04836409
-0.18004677 0.037331626 0.049862534 0.015249419 -0.021681052 0.12409601 0.035050772 0.03577232
-0.03222866 -0.02340291 -0.1332947 0.08889591 -0.14703906 0.009128725 -0.15323836 -0.06762098
0.07080972 0.16737609 -0.08699508 -0.15955952 -0.03146444 0.04035648 -0.1290941 0.044231005
-0.23425446 -0.05109135 0.010682835 0.022844462 0.008476541 0.032024488 -0.16866335 -0.1643713
00000000: abc7 873d 1b45 f03c 2121 96bb c07d 69bd
00000010: dd8d 33be 5e38 94bd fc28 16bd eb2a 70be
00000020: e9b5 493d 0e42 36be 4491 a03d 13c4 84bd
00000030: 0105 77bb e76a 0b3c fb54 443b 0ceb ed3d
00000040: d0a9 0fbe 1e3e 31be 721a f03b cecb 0abd
00000050: 68d3 15be f623 7fbc c1c7 df3b 1d6e 973d
00000060: 909c 003d 6541 a8bd 2724 30bd 1698 64bc
00000070: 5dd1 0cbe 72d9 b53c f09e 453d 7149 bfbd
00000080: ed33 d5bd aef1 ff3b 6625 ffbc 0174 b0bd
00000090: 128d 353d 8aaa c2bc 099d 25be 3502 063d
000000a0: 7c6f 0fbe 7607 ba3d a46f 69bd fdad d23d
000000b0: 2290 0abe a176 c3bd 3aa1 8f3c cc36 633c
000000c0: 9be7 943c b695 f13b 50bf 023d 4368 29be
000000d0: c895 f23b ba72 5dbd bf19 36bd b3dd d33d
000000e0: 5adf 4cbc a9b9 bc3b 8de4 72bc 87fb 11bd
000000f0: fd34 9abd 3427 30be a1e1 4a3d d5bd 98bb
00000100: b3e5 fa3c 7ab8 08be 98d2 2fbd 46fe 98bd
00000110: a510 6fbd bf5f debd ee67 8fbd f5cc fcbd
00000120: 7a83 17bd 366c 8cbd 7288 53bc f85b 40be
00000130: b4b7 973d b0ac 6dbd cb45 abbd fdf2 22bd
00000140: 299f 1cbe 49fa 36bd 42c3 d13d a607 bebd
00000150: 16a0 ae3c 546f b3bd 6394 0fbe 4e3d e8bd
00000160: a15b c1bd f37f f7bd 73c4 d7bc fe17 0abe
00000170: 6140 26be 24c5 6abd 446d 9abc c0fc 58be
00000180: 7880 d9bd b60a 9eba 5213 06bd a1fc 05be
00000190: 543c f3bc 5f50 2f3e c6e4 05be f308 01be
000001a0: 8a9b cfbd 00ff a1bd fd9c 12bd 1e9e 2f3d
000001b0: c4c1 7fbd 5ba6 953c 50c7 e7bc e5ec c2bd
000001c0: a153 ef3c c409 043e 4127 5cbb 804f aabd
000001d0: 5509 5abd 962d c1bd 54bb 64bb 3aa8 d5bb
000001e0: 92cb 19be b2e5 bebd 72b7 823c c575 2d3a
000001f0: 1827 a238 7353 90bd cf6d ecbd fe86 9dbd
00000200: dc4c de3d a611 a93d e63a 1bbd 6124 833d
00000210: 493d 03be ba96 78bb 3fee 123e d37b 75bd
00000220: ca2d afbd bd0c 513d c96a 6ebd 5afe 1cbe
00000230: cc49 a7bc 17a9 0cbd afab c13c 35a1 1bbc
00000240: 5132 1cbd c395 0f3d 42cf 1cbd 88d2 83bd
00000250: 0c74 2bbd 7d6f a2bc af38 0c3d 74f3 9bbc
00000260: 1dbb 273d 7a87 21bd 9e8d 4b3d 162b 1d3c
00000270: b69a b3bc f05f 0fbe be90 7cbc eccc f83c
00000280: 14bf 9abd 599d 973c 54e0 9b3c 3a86 cf3d
00000290: a1d2 4b3d 3186 99bb e29b f13d b11a a1bd
000002a0: d882 47bd 9a10 1fbd 8a5e a2bd 60ce 2fbb
000002b0: 3767 02bd f9a7 963d cf84 a33c a5ad 1c3d
000002c0: 38c3 083d a247 27be 51a4 003d dc70 bebd
000002d0: d52c 8e3d fedc 7d3d 6895 1a3d d1e7 093b
000002e0: 03ab ba3a 7b72 bf3d 9355 153d 51e4 c73d
000002f0: 60b4 8cbc e968 83bc c7c8 89bd 424c aa3d
00000300: f3b8 f53d 791c 2bbc e135 c3bd 0e09 27be
00000310: 0459 5e3d e5a6 afbd 9e9e c1bd 17e8 11be
00000320: 0772 64bd 09f1 77bd fe0f a4bd 8a14 eebd
00000330: bcb2 d03d 69dd a8bd 7e1c 2a3c 6a71 193e
00000340: ff07 b0bb 178d 5bbc 9dce 56bd 88b6 0fbe
00000350: 8af8 da3b c3ba c3bd 96b0 21be 0b27 1ebe
00000360: 3def 80bd a2f8 0bbe bf75 2bbe a3ab 18be
00000370: 9763 93bd 99e0 56bd fa1e 143c 6d19 46bd
00000380: 2e5e 38be 0ce9 183d a83c 4c3d b3d8 793c
00000390: 769c b1bc 0d26 fe3d 6691 0f3d ff85 123d
000003a0: 3302 04bd 76b7 bfbc 687e 08be 0f0f b63d
000003b0: 6891 16be a690 153c 84ea 1cbe de7c 8abd
000003c0: b004 913d a364 2b3e 7a2a b2bd 9263 23be
000003d0: dbe0 00bd d64c 253d 3e31 04be 922b 353d
000003e0: 67e0 6fbe 2a45 51bd 0f07 2f3c 4f24 bb3c
000003f0: 31e1 0a3c 1c2c 033d 16b6 2cbe f350 28be

lstm.weight_ih_l1 f4 [256, 64]
-0.4271446 -0.14185935 -0.027847027 0.29336143 -0.13957474 0.13481449 0.10563171 -0.061144352
-0.027644213 0.08723629 0.105103195 0.041222468 -0.05793981 0.117726475 -0.08445972 -0.05549383
0.16412677 -0.12652518 0.042891227 0.0325836 0.11071344 -0.027915549 -0.19323021 0.07043715
0.12182306 -0.023814231 -0.09572914 0.07553071 0.16801895 -0.118903674 0.04583388 0.035997726
0.07237413 0.039058283 -0.004484498 -0.14404145 -0.11686444 0.20222779 0.104175456 0.05907721
0.14945588 0.046728116 0.06656941 0.17331941 0.08913348 0.06996089 0.08517912 -0.02872682
-0.040043212 0.09563282 -0.017276565 -0.022565808 -0.025643082 -0.114138305 -0.1339938 0.08957732
-0.09211253 -0.24446002 0.14675973 -0.1801037 0.05680014 -0.09353506 -0.04799153 -0.0150891105
-0.063338414 -0.061327122 0.027395567 0.1515521 0.0025427584 0.000721803 -0.007095593 0.15255289
-0.08387747 0.033897884 -0.13871238 0.12323869 0.042651862 -0.07723613 -0.06989309 0.0741768
-0.07660023 0.17032976 -0.066125296 -0.10457784 0.019222315 0.11096945 -0.0019417062 -0.01672448
0.0075008078 -0.08565444 0.016794391 -0.003215571 0.17141734 -0.104185976 0.00019766545 0.0846922
0.11132215 -0.092833444 0.15664233 -0.06582634 0.019295508 0.07649653 0.05198752 -0.12705122
-0.015942708 -0.08217437 0.18630578 -0.20665891 0.074056186 0.111974545 -0.094788946 0.014746383
0.08611165 0.009341997 0.0038885486 -0.09982158 0.013813898 0.14828011 0.072496794 0.022394313
-0.017017981 -0.08414201 0.18377449 -0.0021411853 -0.05102818 -0.019240832 0.046230778 -0.03573306
-0.2509681 -0.29163238 -0.09957147 0.09622973 0.09738016 -0.174119 -0.20744246 0.16364884
-0.005838977 -0.19045272 0.13927862 0.20306806 -0.1330178 0.13032116 -0.037594963 -0.12420931
0.09882751 0.17918539 -0.16237354 -0.3383702 0.06757407 0.014613316 -0.06938808 -0.15213265
-0.09563655 0.04992341 -0.20023316 -0.05186549 0.23861054 0.14743462 0.31332254 -0.04931423
0.22945356 0.15662661 -0.10712465 -0.31688982 0.1549834 0.19311321 0.0329072 0.11027102
0.030230561 -0.008125764 0.3157789 -0.095116764 -0.16941608 0.0026799736 0.15659398 -0.08581332
-0.13126348 0.049064267 -0.05382205 -0.0056833453 -0.054053523 0.18144695 -0.25033072 0.24544719
-0.028952267 -0.3094059 0.1747419 0.020599231 0.08357561 -0.21223137 -0.17363372 -0.17021027
-0.020863373 0.038675707 -0.07611615 0.1496575 -0.055000454 -0.06998374 0.08624012 -0.12405408
0.05479424 -0.021401932 0.00924728 -0.11418571 0.12042372 0.030351656 0.07882335 -0.045305844
-0.03222519 -0.13178924 -0.067824095 -0.051390227 -0.014980187 0.007416996 -0.03368848 0.07986491
0.10952698 -0.025345976 -0.05825363 0.050854564 0.08714962 -0.070168756 -0.14830704 0.011709588
0.010354182 0.10218176 0.0362766 0.072795704 0.0772627 -0.027299995 0.12770087 0.1279948
0.14030337 0.120464355 0.10409009 0.1413125 0.094276555 0.16932662 -0.027528213 0.07351685
0.07814032 0.06689223 -0.1237045 0.017313944 -0.06961319 -0.09791438 -0.15280126 0.062625274
0.07975441 -0.08423827 -0.01463672 -0.022611659 0.07721569 -0.064006746 -0.01748637 0.042862855
00000000: b2b2 dabe 9443 11be 731f e4bc 7833 963e
00000010: aeec 0ebe cf0c 0a3e 7055 d83d 8072 7abd
00000020: 1e76 e2bc f1a8 b23d 5840 d73d e4d8 283d
00000030: 4b52 6dbd 941a f13d 38f9 acbd 804d 63bd
00000040: d910 283e d18f 01be b6ae 2f3d 6276 053d
00000050: babd e23d 26af e4bc 24de 45be 5a41 903d
00000060: 5e7e f93d 1016 c3bc a40d c4bd d8af 9a3d
00000070: 290d 2c3e c583 f3bd 4ebc 3b3d 5a72 133d
00000080: e338 943d 94fb 1f3d b2f2 92bb 9a7f 13be
00000090: a056 efbd cd14 4f3e f159 d53d f2fa 713d
000000a0: f60a 193e fb65 3f3d 8b55 883d a57a 313e
000000b0: 9d8b b63d a847 8f3d 6472 ae3d 8254 ebbc
000000c0: 5a04 24bd 24db c33d 9587 8dbc eedb b8bc
000000d0: 7111 d2bc 58c1 e9bd ac35 09be 5074 b73d
000000e0: 7ea5 bcbd ba53 7abe 2f48 163e 1b6d 38be
000000f0: 43a7 683d 4f8f bfbd c492 44bd 5138 77bc
00000100: 92b7 81bd 2632 7bbd ab6c e03c 7930 1b3e
00000110: 68a4 263b 6137 3d3a 2682 e8bb d336 1c3e
00000120: f3c7 abbd 82d8 0a3d 9e0a 0ebe 9164 fc3d
00000130: b8b3 2e3d fa2d 9ebd 1c24 8fbd 02ea 973d
00000140: 95e0 9cbd ed6a 2e3e b36c 87bd e82c d6bd
00000150: 1e78 9d3c f343 e33d d980 feba c701 89bc
00000160: 56c9 f53b 986b afbd 6494 893c 54bc 52bb
00000170: 0788 2f3e 755f d5bd 6a44 4f39 1b73 ad3d
00000180: defc e33d 761f bebd d966 203e f6cf 86bd
00000190: 9d11 9e3c 36aa 9c3d def0 543d b719 02be
000001a0: 489a 82bc 094b a8bd f1c6 3e3e 659e 53be
000001b0: c5aa 973d e952 e53d b520 c2bd d09a 713c
000001c0: 4e5b b03d 2d0f 193c 05d7 7e3b 426f ccbd
000001d0: b053 623c bed6 173e 3379 943d 4774 b73c
000001e0: 4b69 8bbc a552 acbd 612f 3c3e 2153 0cbb
000001f0: ed02 51bd f39e 9dbc 7c5c 3d3d d45c 12bd
00000200: e47e 80be d750 95be 20ec cbbd 1814 c53d
00000210: 406f c73d 404c 32be cc6b 54be 9093 273e
00000220: e454 bfbb 0a06 43be 0e9f 0e3e 13f1 4f3e
00000230: d135 08be e972 053e 2dfd 19bd 7361 febd
00000240: 1466 ca3d 607c 373e 4045 26be dc3e adbe
00000250: 4664 8a3d b16c 6f3c 561b 8ebd a9c8 1bbe
00000260: 18dd c3bd 7d7c 4c3d ec09 4dbe e870 54bd
00000270: 5256 743e 1af9 163e d06b a03e b8fd 49bd
00000280: e0f5 6a3e ba62 203e 2b64 dbbd 623f a2be
00000290: f8b3 1e3e 78bf 453e b3c9 063d c6d5 e13d
000002a0: 15a6 f73c ed21 05bc c6ad a13e 94cc c2bd
000002b0: 697b 2dbe 7fa2 2f3b 2c5a 203e e5be afbd
000002c0: ef69 06be 9df7 483d 8374 5cbd 5b3b babb
000002d0: 3a67 5dbd 3bcd 393e 592b 80be 8256 7b3e
000002e0: 4e2d edbc 736a 9ebe 8aef 323e b8bf a83c
000002f0: b029 ab3d 2e53 59be 0acd 31be 9a4b 2ebe
00000300: aae9 aabc 6b6a 1e3d c9e2 9bbd d13f 193e
00000310: 2848 61bd a353 8fbd a99e b03d 1110 febd
00000320: ed6f 603d 1b53 afbc e781 173c 33da e9bd
00000330: b6a0 f63d 09a4 f83c 236e a13d 9f92 39bd
00000340: 90fe 03bd c2f3 06be 5ce7 8abd 8f7e 52bd
00000350: 756f 75bc 460a f33b eefc 09bd 3790 a33d
00000360: ae4f e03d 5da2 cfbc 5c9b 6ebd e04c 503d
00000370: 807b b23d a3b4 8fbd cddd 17be 92d9 3f3c
00000380: 96a4 293c ac44 d13d c696 143d ea15 953d
00000390: e83b 9e3d 3da4 dfbc 04c4 023e 1211 033e
000003a0: b0ab 0f3e 04b6 f63d 2f2d d53d 39b4 103e
000003b0: 1114 c13d f563 2d3e d982 e1bc 0190 963d
000003c0: 0808 a03d cbfe 883d c958 fdbd f9d5 8d3c
000003d0: 5c91 8ebd 5687 c8bd ef77 1cbe ae41 803d
000003e0: 4856 a33d 1d85 acbd dace 6fbc 163c b9bc
000003f0: 4223 9e3d f815 83bd 933f 8fbc f690 2f3d

lstm.weight_hh_l1 f4 [256, 64]
0.020781081 0.0927691 0.04680568 0.0772207 0.056969006 0.09129514 -0.037566427 0.1461043
-0.11585462 0.12217463 0.10265779 -0.0988879 -0.05779633 -0.024986392 -0.09579956 -0.15094224
0.04567866 0.014988256 -0.087339275 -0.0057690036 0.0452787 0.00014442703 -0.08306217 -0.0030790775
0.0857944 0.056367233 -0.07155117 -0.138485 0.08009842 -0.14906225 0.13088372 0.064684585
0.10538317 0.08943843 -0.14527899 -0.026385395 -0.003137174 -0.05074101 0.06343377 -0.14172156
-0.05441475 0.17367934 -0.07555635 0.10638134 0.12367735 0.075973965 0.0660688 0.011861683
-0.10041975 -0.10499025 -0.05737471 -0.07922777 -0.13020405 -0.12520996 -0.11558165 -0.11355906
0.038650915 -0.0675782 -0.11643431 -0.05119038 0.038501922 -0.019025454 0.19142842 -0.09134267
-0.103196636 -0.132293 -0.1565224 -0.0716747 -0.10745297 -0.0323141 0.02989449 -0.06253208
-0.078388155 -0.24794509 0.048931256 -0.014744577 0.046010245 -0.07643593 -0.00084036286 0.044260602
-0.064489074 0.050899282 0.00079856795 -0.06565634 0.04505149 0.08622021 0.0550379 0.05203935
-0.086050496 -0.14653926 -0.027358884 0.089246094 0.13891588 0.20098077 0.031809643 -0.13563105
0.2397433 -0.22654518 0.041759532 0.024505006 0.17294613 -0.13758929 -0.16480644 0.058152553
-0.18091477 0.11359816 -0.07531338 0.022368053 0.20511466 0.023128944 0.096749105 0.14647546
0.1729039 0.039430317 0.080815904 0.14998004 0.009421192 0.0383417 -0.07375216 0.0185561
-0.10071707 -0.10303914 0.0323447 -0.082634166 -0.05306124 0.09017279 0.01707836 -0.16932386
0.035548475 0.02396677 -0.106192514 0.13813446 -0.15804781 -0.06403774 -0.071843415 -0.06264218
-0.11899094 -0.01949885 0.64328367 -0.1324179 0.10106443 0.04218595 0.05961417 -0.013821455
0.09452512 0.029670196 -0.025042476 -0.04550537 0.02967164 -0.01793996 0.050490715 -0.08782849
0.13171272 -0.021529207 0.21027276 0.108397 0.17801942 0.08526315 0.11744618 -0.010610382
-0.07381837 -0.03704407 -0.09232025 -0.031027487 -0.11795586 -0.048907187 -0.010233084 -0.0042370697
0.042125586 -0.06301653 -0.03126295 0.14172813 0.123127095 -0.16375764 0.05082368 -0.03531324
-0.16307388 -0.0118622435 0.00245972 -0.19272898 -0.20100626 -0.30130488 -0.019144105 0.014901918
-0.11404644 0.0693247 0.096502475 0.05160469 -0.105176196 0.016921226 0.19730742 0.11930256
0.036997702 0.10245608 -0.014130468 0.13765888 0.069469035 0.11005361 0.17230777 0.086377725
0.012372463 -0.013734998 0.017021572 -0.1281226 0.054666836 0.028081225 0.0628847 -0.045875736
-0.12822165 -0.026087468 -0.022072854 0.14856242 0.08759725 -0.03680244 0.0019082164 -0.11306566
-0.051763963 0.04821941 0.052531056 0.047838915 -0.11328593 -0.09077622 0.0013215241 0.07535191
0.056819405 0.08909951 0.036542732 -0.041007217 -0.15003185 0.047355384 0.16391402 -0.081010975
-0.009057092 0.024631428 -0.039302893 -0.0318548 0.10651258 0.13560979 0.09498649 0.06391034
-0.10472139 -0.059899315 0.10031101 0.078180134 0.023627676 -0.14742452 -0.10882318 -0.06596538
0.07187283 -0.1151239 0.037759233 -0.064236164 -0.09215338 -0.1628322 0.019198103 0.03869834
00000000: 163d aa3c bafd bd3d 50b7 3f3d e325 9e3d
00000010: 5558 693d f2f8 ba3d 41df 19bd 5e9c 153e
00000020: 3045 edbd b136 fa3d 3f3e d23d bd85 cabd
00000030: d8bb 6cbd 43b0 ccbc 8f32 c4bd 9a90 1abe
00000040: 8c19 3b3d 4d91 753c efde b2bd e909 bdbb
00000050: 2876 393d 5671 1739 801c aabd 59ca 49bb
00000060: f9b4 af3d 54e1 663d 6b89 92bd 03cf 0dbe
00000070: a40a a43d c6a3 18be 6206 063e 5a79 843d
00000080: 22d3 d73d 7f2b b73d 04c4 14be 2f26 d8bc
00000090: 0c99 4dbb ced5 4fbd 90e9 813d 751f 11be
000000a0: 00e2 5ebd ffd8 313e 4abd 9abd 76de d93d
000000b0: 8d4a fd3d 3d98 9b3d 144f 873d 8157 423c
000000c0: dfa8 cdbd 2105 d7bd be01 6bbd 2b42 a2bd
000000d0: 3654 05be 0a37 00be 12b6 ecbd a791 e8bd
000000e0: 6c50 1e3d 7066 8abd 1d75 eebd 01ad 51bd
000000f0: 31b4 1d3d 45db 9bbc d005 443e de11 bbbd
00000100: c258 d3bd d177 07be 6847 20be 2fca 92bd
00000110: 4e10 dcbd ca5b 04bd 4ae5 f43c d210 80bd
00000120: f889 a0bd 51e5 7dbe 246c 483d 3d93 71bc
00000130: 3d75 3c3d 718a 9cbd cc4b 5cba 9b4a 353d
00000140: d912 84bd c47b 503d fd56 513a d576 86bd
00000150: e987 383d 3994 b03d 6c6f 613d 3727 553d
00000160: 3e3b b0bd 630e 16be bd1f e0bc a8c6 b63d
00000170: f73f 0e3e e7cd 4d3e d44a 023d dee2 0abe
00000180: 457f 753e 76fb 67be 0b0c 2b3d b9be c83c
00000190: ca18 313e 35e4 0cbe 05c3 28be 5f31 6e3d
000001a0: b941 39be 27a6 e83d e73d 9abd 353d b73c
000001b0: 9409 523e e978 bd3c 6524 c63d aafd 153e
000001c0: b80d 313e af81 213d cf82 a53d 5e94 193e
000001d0: 585b 1a3c 300c 1d3d 5f0b 97bd f602 983c
000001e0: c044 cebd 2f06 d3bd e07b 043d 1a3c a9bd
000001f0: be56 59bd 83ac b83d ebe7 8b3c 3c63 2dbe
00000200: 479b 113d f655 c43c 767b d9bd 1f73 0d3e
00000210: 49d7 21be 3826 83bd a422 93bd 8b4a 80bd
00000220: 86b1 f3bd 0dbc 9fbc 3dae 243f 8f98 07be
00000230: defa ce3d 2dcb 2c3d fd2d 743d 6273 62bc
00000240: 6396 c13d e90e f33c e125 cdbc d763 3abd
00000250: f011 f33c d3f6 92bc 5acf 4e3d 6cdf b3bd
00000260: b3df 063e 055e b0bc be51 573e 3fff dd3d
00000270: b94a 363e 729e ae3d 9f87 f03d 2bd7 2dbc
00000280: 162e 97bd 86bb 17bd 6612 bdbd 5b2d febc
00000290: d892 f1bd e752 48bd aaa8 27bc 1ed7 8abb
000002a0: e18b 2c3d cf0e 81bd 940d 00bd 2e21 113e
000002b0: 0f2a fc3d 15b0 27be 7e2c 503d 9ea4 10bd
000002c0: d7fc 26be db59 42bc 4133 213b bf5a 45be
000002d0: 96d4 4dbe a244 9abe 19d4 9cbc 2d27 743c
000002e0: 2e91 e9bd 1cfa 8d3d 17a3 c53d 705f 533d
000002f0: 9e66 d7bd 629e 8a3c f50a 4a3e e754 f43d
00000300: e78a 173d 7ed4 d13d 7a83 67bc 73f6 0c3e
00000310: c845 8e3d c963 e13d 7371 303e cee6 b03d
00000320: dfb5 4a3c c208 61bc d370 8b3c 9232 03be
00000330: 55ea 5f3d 990a e63c b2c9 803d 32e8 3bbd
00000340: 894c 03be 63b5 d5bc 21d2 b4bc bf20 183e
00000350: 3066 b33d 28be 16bd 1e1d fa3a f88e e7bd
00000360: 7306 54bd b781 453d ce2a 573d bdf2 433d
00000370: 7402 e8bd e2e8 b9bd fe36 ad3a 1a52 9a3d
00000380: 77bb 683d ce79 b63d d5ad 153d 2ff7 27bd
00000390: f3a1 19be b8f7 413d 14d9 273e 15e9 a5bd
000003a0: 3264 14bc d9c7 c93c 12fc 20bd 2e7a 02bd
000003b0: 4423 da3d 4bdd 0a3e 4788 c23d 6de3 823d
000003c0: 2b78 d6bd fc58 75bd dc6f cd3d e81c a03d
000003d0: d48e c13c 74f6 16be b0de debd db18 87bd
000003e0: 1032 933d 14c6 ebbd 6da9 1a3d 408e 83bd
000003f0: e9ba bcbd 7cbd 26be 5745 9d3c 2782 1e3d

lstm.bias_ih_l1 f4 [256]
0.071847126 -0.014030998 0.07382261 -0.1023881 -0.16342089 -0.05619775 -0.053356696 -0.12452782
-0.17174776 -0.0530915 -0.02250014 -0.08807613 -0.10861681 0.08950679 -0.12102079 0.04822586
-0.079300314 -0.0705381 -0.23505205 0.097308725 -0.091946855 0.13537146 -0.021304801 0.18871039
0.029440252 -0.019308481 -0.048305925 -0.018955804 -0.03929913 0.13827115 -0.019852705 -0.044273935
-0.04489536 -0.092533 -0.011619788 0.09159616 0.078064784 0.04657998 -0.11085139 -0.030323893
0.060826145 -0.15581721 -0.047251098 -0.0113330195 0.13677591 -0.036293425 -0.1926536 -0.09007367
-0.040618 -0.020009276 0.071669586 -0.08260728 0.08904404 0.07151858 0.04411431 0.015458162
0.28800792 -0.17337954 0.08480297 -0.079050295 -0.034249246 -0.13048737 0.07155733 -0.14536266
-0.067653626 -0.18020248 -0.01633804 0.067838676 -0.18607754 0.0868037 -0.094929494 -0.23194055
-0.20414355 0.022304023 -0.10705213 0.045956366 -0.13517272 -0.06136165 -0.005262795 -0.17685339
-0.042462017 -0.2572967 -0.14074078 -0.11727943 -0.10552175 -0.20746323 0.035588294 0.03086237
-0.077188514 -0.022890301 -0.14401561 -0.018170092 -0.025868865 0.023219012 -0.13109781 0.022808606
-0.008533555 0.01297865 0.0036300048 -0.03424483 -0.16134268 -0.07407001 -0.28039455 0.061556075
-0.123337515 -0.2575847 -0.12194052 0.041139748 -0.07556073 0.04383121 -0.03600377 -0.074204616
-0.03476711 -0.040903963 -0.3557976 -0.12221054 0.08886966 0.07900285 -0.024278995 -0.11468239
-0.09575088 -0.16053216 -0.15286413 0.02968968 -0.09925245 0.009654881 -0.13714585 -0.06785381
0.03245777 0.029664794 -0.1638517 0.061333943 -0.00067360315 -0.07915236 0.13484865 0.061985265
-0.13353539 -0.14835452 -0.043232735 -0.04123392 0.08696442 -0.0282822 0.087084055 -0.11630122
0.03233954 -0.085124075 0.04047327 -0.049992457 0.023994107 0.04819714 -0.06434445 -0.020326082
0.033799782 0.03284932 -0.027598303 0.07668172 0.0626849 -0.043456126 0.01697743 -0.059480697
0.029801369 -0.08305603 -0.05472013 -0.06562892 -0.08867919 -0.009538108 0.017158765 0.051945355
0.009239442 0.065966286 -0.0624527 0.0010680329 0.06066762 0.030331556 0.042067852 -0.023804108
-0.063737586 -0.06613367 -0.048713215 -0.041440263 -0.094811745 0.0067076175 0.049783852 -0.15120155
-0.017993566 -0.13955016 -0.07716213 0.06132116 0.06779826 -0.05755364 0.019219633 0.002458249
-0.13784148 -0.07320512 -0.011184923 0.041195937 -0.20574771 0.048886962 -0.19413371 -0.07937095
-0.18326144 0.13288836 0.14695747 0.02439128 -0.07597892 -0.13749018 0.019532418 0.04337193
-0.07949087 -0.23361799 -0.06445224 0.10401493 0.07300471 0.14093155 -0.14569843 0.09077116
0.0039743264 -0.045179393 0.015702438 -0.13336112 0.009796583 0.03259683 0.12689309 -0.018516801
-0.16308129 -0.12664406 0.07378754 -0.124071136 0.12046611 0.012037195 -0.14018357 -0.111600764
-0.11627383 -0.18769853 -0.0137346005 -0.0042829663 -0.044467647 -0.012158153 -0.16852771 -0.12945111
-0.00852601 -0.103739046 0.1240445 0.086708054 -0.021945508 0.06835607 0.061760865 0.032027543
0.1576839 -0.12997182 0.07613062 0.010977601 -0.07776358 -0.11240135 0.00602111 -0.08205993
00000000: 9624 933d 45e2 65bc 4f30 973d dab0 d1bd
00000010: ce57 27be 9d2f 66bd 8d8c 5abd 7108 ffbd
00000020: a5de 2fbe 7976 59bd 3752 b8bc 4261 b4bd
00000030: 7d72 debd 564f b73d bfd9 f7bd 7b88 453d
00000040: 3468 a2bd 4876 90bd 7cb1 70be cc49 c73d
00000050: a24e bcbd d19e 0a3e 6887 aebc 4c3d 413e
00000060: af2c f13c d22c 9ebc 6fdc 45bd 3449 9bbc
00000070: 20f8 20bd f496 0d3e 24a2 a2bc 9658 35bd
00000080: 32e4 37bd f181 bdbd ec60 3ebc c496 bb3d
00000090: 6ee0 9f3d a6ca 3e3d 0e06 e3bd d069 f8bc
000000a0: d624 793d 8c8e 1fbe 5e8a 41bd 21ae 39bc
000000b0: fc0e 0c3e 6aa8 14bd fc46 45be 8b78 b8bd
000000c0: 0f5f 26bd 7eea a3bc 81c7 923d 012e a9bd
000000d0: b95c b63d 5578 923d 35b1 343d 3b44 7d3c
000000e0: c675 933e 688a 31be 2ead ad3d 1fe5 a1bd
000000f0: f048 0cbd 7b9e 05be a68c 923d f3d9 14be
00000100: fc8d 8abd 0087 38be 5ad7 85bc 01ef 8a3d
00000110: 1c8b 3ebe 23c6 b13d 656a c2bd d381 6dbe
00000120: 020b 51be edb6 b63c 263e dbbd be3c 3c3d
00000130: b86a 0abe 5a56 7bbd 8673 acbb 0e19 35be
00000140: a7ec 2dbd 65bc 83be 5a1e 10be 3330 f0bd
00000150: ca1b d8bd 3e71 54be 08c5 113d 15d3 fc3c
00000160: 0315 9ebd 7184 bbbc d478 13be 72d9 94bc
00000170: f1ea d3bc cc35 be3c 813e 06be 1dd9 ba3c
00000180: 53d0 0bbc 67a4 543c 60e5 6d3b 4f44 0cbd
00000190: 0437 25be 04b2 97bd e08f 8fbe 3922 7c3d
000001a0: 6198 fcbd 24e2 83be f4bb f9bd 2782 283d
000001b0: 96bf 9abd 5b88 333d b078 13bd 97f8 97bd
000001c0: f567 0ebd ea8a 27bd 1a2b b6be 8549 fabd
000001d0: 4c01 b63d 3fcc a13d bee4 c6bc 9ade eabd
000001e0: 0a19 c4bd 8b62 24be 6a88 1cbe c637 f33c
000001f0: de44 cbbd 822f 1e3c f66f 0cbe f0f6 8abd
00000200: 70f2 043d 9503 f33c bdc8 27be 4d39 7b3d
00000210: be94 30ba a21a a2bd c415 0a3e 43e4 7d3d
00000220: 80bd 08be 3fea 17be cf14 31bd e6e4 28bd
00000230: 671a b23d 13b0 e7bc 2059 b23d 562f eebd
00000240: 7776 043d 8855 aebd 4dc7 253d e4c4 4cbd
00000250: 4a8f c43c 5d6a 453d 06c7 83bd e282 a6bc
00000260: a471 0a3d 028d 063d d615 e2bc 4e0b 9d3d
00000270: f160 803d 0dff 31bd 4014 8b3c 08a2 73bd
00000280: 0022 f43c 4819 aabd 3722 60bd 7568 86bd
00000290: 6f9d b5bd b945 1cbc 8a90 8c3c a7c4 543d
000002a0: 0761 173c 5519 873d 67ce 7fbd 3dfd 8b3a
000002b0: 9c7e 783d e279 f83c 574f 2c3d d500 c3bc
000002c0: da88 82bd 1771 87bd 8287 47bd 44bd 29bd
000002d0: a92c c2bd 93cb db3b 27ea 4b3d 94d4 1abe
000002e0: 3e67 93bc 3de6 0ebe 2e07 9ebd e62b 7b3d
000002f0: d0d9 8a3d 5ebd 6bbd 7e72 9d3c 931a 213b
00000300: 5126 0dbe 91ec 95bd f840 37bc 12bd 283d
00000310: 87af 52be b23d 483d fdca 46be 3d8d a2bd
00000320: e3a8 3bbe e313 083e 057c 163e 39d0 c73c
00000330: d69a 9bbd 3aca 0cbe 7302 a03c c4a6 313d
00000340: 1ccc a2bd 8e39 6fbe 89ff 83bd c805 d53d
00000350: 7e83 953d 5c50 103e f831 15be 3be6 b93d
00000360: 113b 823b 070e 39bd 66a2 803c d18f 08be
00000370: d981 203c 4184 053d 43f0 013e 8cb0 97bc
00000380: c8fe 26be fbae 01be ec1d 973d 0219 febd
00000390: f0b6 f63d a837 453c 488c 0fbe f18e e4bd
000003a0: f920 eebd 0b34 40be 1707 61bc 2058 8cbb
000003b0: b523 36bd fd32 47bc 8792 2cbe d58e 04be
000003c0: aeb0 0bbc 2375 d4bd 0b0b fe3d fe93 b13d
000003d0: 11c7 b3bc 44fe 8b3d f6f8 7c3d 502f 033d
000003e0: e377 213e 5517 05be 5fea 9b3d 65db 333c
000003f0: 8342 9fbd ae32 e6bd bb4c c53b 090f a8bd

lstm.bias_hh_l1 f4 [256]
-0.08236673 -0.07986205 0.07699204 -0.016819233 -0.11895843 -0.114684895 0.035666805 -0.19784053
-0.14080103 0.0643556 -0.010302352 -0.03674051 -0.00044192086 -0.016838951 0.095083274 -0.1644225
0.09280587 -0.18736413 -0.13692154 0.022033056 -0.0883137 0.27420384 -0.14455836 0.03971963
0.07387868 -0.08527353 -0.042144176 0.030871637 -0.023793906 0.17795518 0.07458234 -0.086617455
-0.17882714 -0.13279548 -0.040190514 0.06308235 0.018008666 0.07749475 -0.2265774 -0.0370357
-0.13582222 -0.096917585 -0.11861547 0.0809836 -0.07192336 0.04066994 -0.10287122 -0.031915814
-0.076594494 0.0062535047 0.23986737 0.061562985 0.024450548 0.09342775 0.08136334 -0.06673531
0.2979873 -0.103348404 -0.10101916 -0.1977899 -0.048855774 -0.017162602 0.19331264 -0.009976101
-0.041364636 -0.046367742 -0.053303808 0.026887331 -0.2550364 -0.04388382 -0.12056833 -0.235682
-0.21680197 0.025970729 -0.011293098 0.061509 0.02942123 0.046294484 0.011485496 0.035649687
-0.02240093 -0.108841024 -0.12943251 -0.12633333 -0.12795213 -0.027291525 -0.11076371 -0.0012710452
-0.061935134 -0.082334675 -0.06996976 -0.06344459 -0.10576497 -0.049157567 0.036174744 -0.1448919
0.0010250842 -0.029374767 0.015966693 -0.0344264 -0.09974658 0.050373953 -0.15297453 -0.15688768
-0.0063574896 -0.13652359 -0.045005407 -0.0064242827 -0.18310955 0.05129296 -0.19797468 -0.017996578
0.056736663 -0.02830511 -0.18483402 -0.1331589 0.08188182 0.020478316 -0.0054610823 -0.10280219
-0.22205517 -0.097059354 -0.13707057 -0.18514414 0.057185195 -0.14799008 -0.111937426 0.03532749
0.08243614 0.0012586117 0.02528696 -0.048103712 0.014446479 0.010620738 0.00050731795 -0.047311947
0.039824504 0.020885438 0.14027688 -0.04401871 0.10195295 0.05975664 0.074156895 0.073327616
0.053985264 0.04165344 0.035747666 -0.031247128 0.028580654 -0.07531472 0.051033996 -0.001057475
-0.048548073 0.022866264 0.045586765 0.03972533 -0.06658103 0.12894152 -0.002656736 0.10640988
-0.03849094 0.10645673 0.049240727 -0.08470032 0.045109294 -0.05850592 -0.027473293 0.022341553
0.051688444 0.047323145 -0.0026290591 -0.0041614906 -0.15767033 -0.08614776 0.023225334 0.03612568
0.044277504 0.06392236 0.034384977 -0.018068122 0.048263963 -0.090562776 0.035193197 -0.01331878
-0.02644986 -0.03244869 0.04512293 0.12417065 -0.01787063 -0.06788044 0.0013754878 -0.02645636
-0.035866693 -0.22681886 0.021357875 -0.13064033 -0.095631905 -0.022535102 0.026035435 -0.158224
-0.083318874 -0.048110276 0.08797817 0.055170637 0.0012411074 0.039194614 0.04919106 -0.086810164
0.0069141756 -0.05523368 -0.25297427 0.049697768 -0.121442005 0.26126927 0.022476977 0.10068849
0.10502608 0.0039221165 -0.025242662 0.060424965 -0.07885084 0.052640334 -0.005033727 -0.09980362
-0.19426578 -0.05363767 -0.07243111 -0.10219144 -0.08553247 -0.1682362 -0.3146975 -0.107305594
-0.1370794 -0.1649821 -0.03086899 0.032394707 -0.10855281 0.090733774 0.033874065 0.07427019
0.03274076 0.015676878 0.11299752 -0.036800995 -0.12286856 -0.12859854 0.022728765 -0.016312048
0.1529834 -0.068574496 -0.04627944 -0.20231865 -0.018663716 -0.15964623 0.046277698 -0.1326634
00000000: e3af a8bd b78e a3bd 01ae 9d3d 7dc8 89bc
00000010: 7aa0 f3bd eadf eabd 5b17 123d b596 4abe
00000020: 252e 10be decc 833d 32cb 28bc 387d 16bd
00000030: 9db1 e7b9 d7f1 89bc 05bb c23d 5f5e 28be
00000040: 0111 be3d 62dc 3fbe 2935 0cbe ab7e b43c
00000050: d0dd b4bd 7264 8c3e 1b07 14be 0db1 223d
00000060: b54d 973d e3a3 aebd 5f9f 2cbd 84e6 fc3c
00000070: 70eb c2bc e239 363e a0be 983d 7e64 b1bd
00000080: 761e 37be 8afb 07be cf9e 24bd 5231 813d
00000090: e986 933c 91b5 9e3d e803 68be bfb2 17bd
000000a0: fb14 0bbe ba7c c6bd abec f2bd bbda a53d
000000b0: 8e4c 93bd 8695 263d 25ae d2bd 28ba 02bd
000000c0: 93dd 9cbd 33ea cc3b cb9f 753e 7829 7c3d
000000d0: 844c c83c 0c57 bf3d d3a1 a63d 86ac 88bd
000000e0: cb91 983e 54a8 d3bd 22e3 cebd 6f89 4abe
000000f0: fe1c 48bd 9698 8cbc c0f3 453e cd72 23bc
00000100: f76d 29bd 1aec 3dbd 1855 5abd d242 dc3c
00000110: 2294 82be 85bf 33bd 87ec f6bd 9f56 71be
00000120: 5601 5ebe 91c0 d43c b006 39bc dcf0 7b3d
00000130: cb04 f13c 499f 3d3d a92d 3c3c 6805 123d
00000140: 2882 b7bc 0be8 debd f589 04be 865d 01be
00000150: e205 03be 7a92 dfbc 16d8 e2bd 3399 a6ba
00000160: b2af 7dbd 159f a8bd 4e4c 8fbd 3def 81bd
00000170: 4e9b d8bd 7259 49bd f82b 143d 8b5e 14be
00000180: 1e5c 863a 5aa3 f0bc 95cc 823c b202 0dbd
00000190: ef47 ccbd eb54 4e3d 5ba5 1cbe 2aa7 20be
000001a0: 7d52 d0bb d7cc 0bbe 9757 38bd ca82 d2bb
000001b0: 1281 3bbe 9118 523d e0b9 4abe 8f6d 93bc
000001c0: b464 683d 1ee0 e7bc 2145 3dbe cf5a 08be
000001d0: a8b1 a73d 24c2 a73c e1f2 b2bb f489 d2bd
000001e0: 6e62 63be 0ec7 c6bd 3a5c 0cbe 6d96 3dbe
000001f0: 063b 6a3d b68a 17be 733f e5bd 8fb3 103d
00000200: 47d4 a83d 00f8 a43a 9926 cf3c 6608 45bd
00000210: edb0 6c3c 9b02 2e3c 88fd 043a 2cca 41bd
00000220: 051f 233d f017 ab3c bea4 0f3e f64c 34bd
00000230: b5cc d03d 61c3 743d 92df 973d ca2c 963d
00000240: a71f 5d3d cc9c 2a3d 256c 123d faf9 ffbc
00000250: fa21 ea3c 9b3e 9abd 0609 513d f99a 8aba
00000260: 58da 46bd 0852 bb3c 30b9 3a3d 07b7 223d
00000270: a35b 88bd 3f09 043e a21c 2ebb 6ced d93d
00000280: ada8 1dbd fc05 da3d a5b0 493d 5d77 adbd
00000290: 86c4 383d e7a3 6fbd ac0f e1bc a205 b73c
000002a0: 43b7 533d ead5 413d 4b4c 2cbb 1d5d 88bb
000002b0: 5574 21be 3d6e b0bd 0e43 be3c 85f8 133d
000002c0: 545c 353d bae9 823d 43d7 0c3d 9903 94bc
000002d0: 6fb0 453d fa78 b9bd be26 103d 0337 5abc
000002e0: 60ad d8bc ebe8 04bd d2d2 383d 2f4d fe3d
000002f0: 6d65 92bc e604 8bbd b649 b43a 02bb d8bc
00000300: f4e8 12bd 3443 68be b6f6 ae3c 94c6 05be
00000310: a9da c3bd 899b b8bc 4448 d53c 7905 22be
00000320: 16a3 aabd 480f 45bd e62d b43d 9bfa 613d
00000330: a7ac a23a 888a 203d 917c 493d 87c9 b1bd
00000340: 4f90 e23b b63c 62bd d885 81be e38f 4b3d
00000350: 96b6 f8bd 16c5 853e a321 b83c c435 ce3d
00000360: ea17 d73d 1985 803b b3c9 cebc 2b80 773d
00000370: 8d7c a1bd 649d 573d f6f1 a4bb d765 ccbd
00000380: 9ced 46be 2cb3 5bbd c356 94bd bf49 d1bd
00000390: a62b afbd 1c46 2cbe 0820 a1be 09c3 dbbd
000003a0: 8b5e 0cbe 11f1 28be f7e0 fcbc 50b0 043d
000003b0: f050 debd a1d2 b93d 88bf 0a3d f81a 983d
000003c0: 2d1b 063d cc6c 803c 3e6b e73d a4bc 16bd
000003d0: 83a2 fbbd 56af 03be ad31 ba3c d8a0 85bc
000003e0: aea7 1c3e c970 8cbd 838f 3dbd 9f2c 4fbe
000003f0: a6e4 98bc 4d7a 23be af8d 3d3d ead8 07be
